…
        "id": "EAyIjFUsglV6"
      }
    },
    {
      "cell_type": "code",
      "execution_count": null,
      "metadata": {
        "id": "3oCYnC_Cfyz3",
        "outputId": "d1002f21-dbc2-43f3-aec8-1e60965d4cc5"
      },
      "outputs": [
        {
          "name": "stderr",
          "output_type": "stream",
          "text": [
            "Special tokens have been added in the vocabulary, make sure the associated word embeddings are fine-tuned or trained.\n"
          ]
        },
        {
          "data": {
            "text/plain": [
              "T5ForConditionalGeneration(\n",
              "  (shared): Embedding(32128, 768)\n",
              "  (encoder): T5Stack(\n",
              "    (embed_tokens): Embedding(32128, 768)\n",
              "    (block): ModuleList(\n",
              "      (0): T5Block(\n",
              "        (layer): ModuleList(\n",
              "          (0): T5LayerSelfAttention(\n",
              "            (SelfAttention): T5Attention(\n",
              "              (q): Linear(in_features=768, out_features=768, bias=False)\n",
              "              (k): Linear(in_features=768, out_features=768, bias=False)\n",
              "              (v): Linear(in_features=768, out_features=768, bias=False)\n",
              "              (o): Linear(in_features=768, out_features=768, bias=False)\n",
              "              (relative_attention_bias): Embedding(32, 12)\n",
              "            )\n",
              "            (layer_norm): T5LayerNorm()\n",
              "            (dropout): Dropout(p=0.1, inplace=False)\n",
              "          )\n",
              "          (1): T5LayerFF(\n",
              "            (DenseReluDense): T5DenseGatedActDense(\n",
              "              (wi_0): Linear(in_features=768, out_features=2048, bias=False)\n",
              "              (wi_1): Linear(in_features=768, out_features=2048, bias=False)\n",
              "              (wo): Linear(in_features=2048, out_features=768, bias=False)\n",
              "              (dropout): Dropout(p=0.1, inplace=False)\n",
              "              (act): NewGELUActivation()\n",
              "            )\n",
              "            (layer_norm): T5LayerNorm()\n",
              "            (dropout): Dropout(p=0.1, inplace=False)\n",
              "          )\n",
              "        )\n",
              "      )\n",
              "      (1-11): 11 x T5Block(\n",
              "        (layer): ModuleList(\n",
              "          (0): T5LayerSelfAttention(\n",
              "            (SelfAttention): T5Attention(\n",
              "              (q): Linear(in_features=768, out_features=768, bias=False)\n",
              "              (k): Linear(in_features=768, out_features=768, bias=False)\n",
              "              (v): Linear(in_features=768, out_features=768, bias=False)\n",
              "              (o): Linear(in_features=768, out_features=768, bias=False)\n",
              "            )\n",
              "            (layer_norm): T5LayerNorm()\n",
              "            (dropout): Dropout(p=0.1, inplace=False)\n",
              "          )\n",
              "          (1): T5LayerFF(\n",
              "            (DenseReluDense): T5DenseGatedActDense(\n",
              "              (wi_0): Linear(in_features=768, out_features=2048, bias=False)\n",
              "              (wi_1): Linear(in_features=768, out_features=2048, bias=False)\n",
              "              (wo): Linear(in_features=2048, out_features=768, bias=False)\n",
              "              (dropout): Dropout(p=0.1, inplace=False)\n",
              "              (act): NewGELUActivation()\n",
              "            )\n",
              "            (layer_norm): T5LayerNorm()\n",
              "            (dropout): Dropout(p=0.1, inplace=False)\n",
              "          )\n",
              "        )\n",
              "      )\n",
              "    )\n",
              "    (final_layer_norm): T5LayerNorm()\n",
              "    (dropout): Dropout(p=0.1, inplace=False)\n",
              "  )\n",
              "  (decoder): T5Stack(\n",
              "    (embed_tokens): Embedding(32128, 768)\n",
              "    (block): ModuleList(\n",
              "      (0): T5Block(\n",
              "        (layer): ModuleList(\n",
              "          (0): T5LayerSelfAttention(\n",
              "            (SelfAttention): T5Attention(\n",
              "              (q): Linear(in_features=768, out_features=768, bias=False)\n",
              "              (k): Linear(in_features=768, out_features=768, bias=False)\n",
              "              (v): Linear(in_features=768, out_features=768, bias=False)\n",
              "              (o): Linear(in_features=768, out_features=768, bias=False)\n",
              "              (relative_attention_bias): Embedding(32, 12)\n",
              "            )\n",
              "            (layer_norm): T5LayerNorm()\n",
              "            (dropout): Dropout(p=0.1, inplace=False)\n",
              "          )\n",
              "          (1): T5LayerCrossAttention(\n",
              "            (EncDecAttention): T5Attention(\n",
              "              (q): Linear(in_features=768, out_features=768, bias=False)\n",
              "              (k): Linear(in_features=768, out_features=768, bias=False)\n",
              "              (v): Linear(in_features=768, out_features=768, bias=False)\n",
              "              (o): Linear(in_features=768, out_features=768, bias=False)\n",
              "            )\n",
              "            (layer_norm): T5LayerNorm()\n",
              "            (dropout): Dropout(p=0.1, inplace=False)\n",
              "          )\n",
              "          (2): T5LayerFF(\n",
              "            (DenseReluDense): T5DenseGatedActDense(\n",
              "              (wi_0): Linear(in_features=768, out_features=2048, bias=False)\n",
              "              (wi_1): Linear(in_features=768, out_features=2048, bias=False)\n",
              "              (wo): Linear(in_features=2048, out_features=768, bias=False)\n",
              "              (dropout): Dropout(p=0.1, inplace=False)\n",
              "              (act): NewGELUActivation()\n",
              "            )\n",
              "            (layer_norm): T5LayerNorm()\n",
              "            (dropout): Dropout(p=0.1, inplace=False)\n",
              "          )\n",
              "        )\n",
              "      )\n",
              "      (1-11): 11 x T5Block(\n",
              "        (layer): ModuleList(\n",
              "          (0): T5LayerSelfAttention(\n",
              "            (SelfAttention): T5Attention(\n",
              "              (q): Linear(in_features=768, out_features=768, bias=False)\n",
              "              (k): Linear(in_features=768, out_features=768, bias=False)\n",
              "              (v): Linear(in_features=768, out_features=768, bias=False)\n",
              "              (o): Linear(in_features=768, out_features=768, bias=False)\n",
              "            )\n",
              "            (layer_norm): T5LayerNorm()\n",
              "            (dropout): Dropout(p=0.1, inplace=False)\n",
              "          )\n",
              "          (1): T5LayerCrossAttention(\n",
              "            (EncDecAttention): T5Attention(\n",
              "              (q): Linear(in_features=768, out_features=768, bias=False)\n",
              "              (k): Linear(in_features=768, out_features=768, bias=False)\n",
              "              (v): Linear(in_features=768, out_features=768, bias=False)\n",
              "              (o): Linear(in_features=768, out_features=768, bias=False)\n",
              "            )\n",
              "            (layer_norm): T5LayerNorm()\n",
              "            (dropout): Dropout(p=0.1, inplace=False)\n",
              "          )\n",
              "          (2): T5LayerFF(\n",
              "            (DenseReluDense): T5DenseGatedActDense(\n",
              "              (wi_0): Linear(in_features=768, out_features=2048, bias=False)\n",
              "              (wi_1): Linear(in_features=768, out_features=2048, bias=False)\n",
              "              (wo): Linear(in_features=2048, out_features=768, bias=False)\n",
              "              (dropout): Dropout(p=0.1, inplace=False)\n",
              "              (act): NewGELUActivation()\n",
              "            )\n",
              "            (layer_norm): T5LayerNorm()\n",
              "            (dropout): Dropout(p=0.1, inplace=False)\n",
              "          )\n",
              "        )\n",
              "      )\n",
              "    )\n",
              "    (final_layer_norm): T5LayerNorm()\n",
              "    (dropout): Dropout(p=0.1, inplace=False)\n",
              "  )\n",
              "  (lm_head): Linear(in_features=768, out_features=32128, bias=False)\n",
              ")"
            ]
          },
          "execution_count": 37,
          "metadata": {},
          "output_type": "execute_result"
        }
      ],
      "source": [
        "from transformers import T5Tokenizer, T5ForConditionalGeneration, AdamW\n",
        "import torch\n",
        "\n",
        "# Set device\n",
        "device = torch.device(\"cuda\" if torch.cuda.is_available() else \"cpu\")\n",
…
